utils/test.pth (torch, 54688 bytes, 15 tensors)

input_layer.weight f4 [128, 8]
00000000: 0f26 c9bd edae 82be 8183 8cbd 1854 753d
00000010: 23be a0be f9cb 913d c7ae 2c3e 9775 8cbe
00000020: 81c9 b2be 98e6 f9bd 03af bebe 7508 a93e
00000030: c853 e73d b36f a23e 3159 91bd ec0a 79be
00000040: bff3 c2bc 49b2 7e3e f3eb 793e a9f2 693c
00000050: b934 263e 502e 5a3e 41eb 593e e76f 2e3d
00000060: cc00 863c d9c3 7abe b50d 02be 716b f4bd
00000070: e5c8 babe d8b7 903e 0054 1c3d e420 b8be
00000080: dca4 bbbe 3b01 bdbe d5db 383e 6b45 253d
00000090: 0062 923e f414 d83d d3af 8c3c 83d3 95be
000000a0: 27e6 46be d893 84be 934b 0fbe 2c25 0d3d
000000b0: dceb a0be 34b0 37be 08d7 a43e f2c4 95be
000000c0: a9df 873e a950 75be 0cc3 2ebd 193a 903e
000000d0: 792c 7a3d 807f 313e ed04 9abe 3b54 fb3c
000000e0: d09e 203e 61a5 b43b 7738 18be 3dad 72be
000000f0: ad60 683e c314 733d f5a7 debd 1321 a8bd
00000100: 61c5 0f3e db59 1c3e 7d32 dbbc 7866 71bd
00000110: 417e 363e 885e c0be 1008 debc 68e6 08bd
00000120: 87ed ad3e 3433 e4bd 930e 95bd b5f3 1cbd
00000130: 002c 93bb 092a 103d c555 a33e c0cd b43d
00000140: 877b cebc c8dd b03e 00cc 51be 25ab 703e
00000150: 0634 a3be a3bf 3bbe c4fa 913e b854 49be
00000160: 61b0 203e 07d7 b4be 4d7d f2bd 859f 45be
00000170: e398 05be 475d 6f3e 7356 6cbe 597b 40bd
00000180: b60a 8bbc 8b61 7cbe c517 9cbe c44c 4a3e
00000190: 5d39 3c3e 698f 1dbe 159d 733e 4ffd 44be
000001a0: ccbb 2c3d c1ab a63e 1d8a c6bd 2d73 83be
000001b0: 3568 4d3e 680c 333d 7314 9ebe 247d 2abe
000001c0: 60ff 0fbe bf78 6ebe d0af e4bd b500 82bc
000001d0: 216a 62be 7c66 1bbd 202b 943e 54f9 d83d
000001e0: 477e 9fbe 0cca 323e 8bba 2d3d 9100 573e
000001f0: 918b 013d f7c0 ba3b 9565 3cbe fc1e b2bc
00000200: 006a 423e 4ca8 3c3d 4ddb f9bd 2909 53bd
00000210: 348a 9fbe e08a 353e 55f6 163e 3bf3 00be
00000220: 1da4 793e 714a 32be e1bd a83d 3720 4f3e
00000230: ecb5 e33d 15e6 943e 74b2 60bd 0cfe 62be
00000240: 94b1 23be fcf3 c0be 9853 823e c426 963e
00000250: cb79 62be 3ca4 9d3d 5cde 9f3e b34c 563d
00000260: 9bc0 973e 9f07 7cbe 9c88 e7bd 3d2d c3bd
00000270: 8128 aabe e58c 683e bc88 94be 43bb a7bd
00000280: ff7f 50bc 7a79 87be 989c da3d 3952 033e
00000290: c3db 85be 2ce1 a7bd d71b 3abe 345e 89be
000002a0: 61b3 a0be 7962 513e 3c2c 073e 7d35 4dbd
000002b0: 5dfa 19be b7cf 9ebe a750 543e d500 d1bd
000002c0: 5851 813e fbab 773c 6c11 a33d 089b a53d
000002d0: d9cd afbd 6f8d 12be a117 823e 4b37 813e
000002e0: f3a3 4c3e 8faf a13e 270a 85bd 05d7 22be
000002f0: 8c6b 9e3d 9d79 7dbe 14aa 7b3e eb8f 46be
00000300: b522 8d3e 47f1 063d dfe5 92be e026 743d
00000310: 300e 10bc a0f9 24be 1f26 afbe 813c 893e
00000320: a9be 7fbe 0907 853e c1c8 31be 7492 8f3e
00000330: e45a 8e3e 55a3 59be cf16 593e 4799 8d3e
00000340: 2526 b2be 83d8 6bbe 30f8 47be b44c a2be
00000350: 3562 9f3e 85d6 8dbe e16c 61be 5b3a b8be
00000360: 7e82 a3be befc 1b3e 0b82 41be 6460 8b3e
00000370: 0ba8 61be 67e3 a63e f695 0b3e 87b6 27be
00000380: f474 de3d a5c4 b83e 2bec eabd a1b2 0dbe
00000390: a0df 79bd e143 3dbc 2fbe 8e3e 6dc3 923e
000003a0: ad05 613e 3d93 9cbe eb32 c43d 85ca b83a
000003b0: d37d 813c 1564 a03e fbb6 533e 1878 353b
000003c0: 021b aabe 433b d93d 401d b0be 68dd 83bd
000003d0: c98e 1a3e 055c 183e 98df 5c3e dd06 80be
000003e0: 131e 2d3e f022 ec3c d0a7 07bd cde9 e4bd
000003f0: 5b96 0abc 980a b6be 89d5 95be 2b75 1cbe
-0.09821712 -0.25524083 -0.0686102 0.05989465 -0.31395063 0.07118983 0.16863547 -0.27433464
-0.3491936 -0.122021854 -0.37242898 0.33014265 0.11295277 0.31725845 -0.0709709 -0.24320573
-0.023797868 0.24872698 0.24406414 0.014279046 0.1623105 0.2130673 0.21281148 0.042587187
0.016357802 -0.24488772 -0.12700541 -0.11934555 -0.36481395 0.28265262 0.038166046 -0.35962594
-0.36649215 -0.36915 0.1805261 0.040349405 0.28590393 0.105508715 0.017173683 -0.29262933
-0.19423734 -0.25894046 -0.13993673 0.034459278 -0.31429946 -0.1793831 0.32195306 -0.2925182
0.26537827 -0.2395655 -0.04266648 0.28169325 0.06107757 0.17333794 -0.30081883 0.030679813
0.15685582 0.0055128788 -0.1486529 -0.23698898 0.22693129 0.05934597 -0.10871879 -0.082094334
0.14040138 0.15268652 -0.026757473 -0.058935612 0.178216 -0.37572122 -0.027103454 -0.033422858
0.3397028 -0.11142579 -0.072781704 -0.038318355 -0.004491329 0.035196338 0.31901374 0.08828306
-0.025205387 0.34544206 -0.20487976 0.23502786 -0.31875628 -0.18334822 0.2851163 -0.19661224
0.15692283 -0.35320303 -0.118403055 -0.19299133 -0.13046603 0.23375426 -0.23079853 -0.046992633
-0.01697288 -0.24646585 -0.30486885 0.19755846 0.18381257 -0.15386738 0.23790391 -0.19237255
0.042171285 0.32552913 -0.09694312 -0.2567381 0.20059283 0.043713003 -0.30874977 -0.166493
-0.14062262 -0.23288248 -0.11166346 -0.015869478 -0.22110797 -0.037939534 0.28939152 0.105944306
-0.3115103 0.17459887 0.04241423 0.2099631 0.03162724 0.0056992727 -0.18398125 -0.02174329
0.18985748 0.046058938 -0.122000314 -0.051522408 -0.31160128 0.17728758 0.14742406 -0.12592785
0.2437901 -0.1741121 0.082393415 0.20227133 0.11118683 0.2908179 -0.054857686 -0.22167224
-0.1598571 -0.37686145 0.25454402 0.2932645 -0.22116773 0.07697341 0.31224334 0.05231924
0.29639134 -0.24612282 -0.11305353 -0.09530113 -0.33234027 0.22709997 -0.2901057 -0.08190014
-0.012725829 -0.26459867 0.10674399 0.12824334 -0.26144227 -0.08197245 -0.18174683 -0.26829684
-0.31386855 0.2044772 0.13200468 -0.05009984 -0.15036912 -0.3101785 0.20733891 -0.10205237
0.25257373 0.015116687 0.07962307 0.080862105 -0.08584184 -0.14311765 0.25408652 0.25237498
0.19984417 0.31579253 -0.06496077 -0.15902336 0.07735357 -0.24753423 0.24576598 -0.19390838
0.27565542 0.032944944 -0.28691003 0.059607387 -0.008792445 -0.1611085 -0.34208772 0.26803973
-0.24975075 0.2598193 -0.17361738 0.28041422 0.2780372 -0.21253712 0.21200107 0.27656004
-0.34794727 -0.23031811 -0.1952827 -0.31699145 0.31129614 -0.27702728 -0.2201419 -0.35982022
-0.31935495 0.15233132 -0.18897264 0.27221978 -0.2203676 0.3259537 0.13631424 -0.16378222
0.10862151 0.36087528 -0.11470827 -0.13837673 -0.06100428 -0.011551828 0.27879474 0.28664723
0.21974821 -0.30581084 0.09580024 0.0014098441 0.015807068 0.31326357 0.2067527 0.002768999
-0.3322373 0.106070064 -0.34397316 -0.06438714 0.1509353 0.14878853 0.21569669 -0.25005236
0.16906004 0.028825253 -0.033119023 -0.111774065 -0.008458699 -0.35554957 -0.29264477 -0.15279071

input_layer.bias f4 [128]
00000000: 9b23 8b3c 1d69 f9bd 487c 69be 34d1 983d
00000010: e09e 65be 5fe6 a83e c432 1bbb c8ed c93c
00000020: bc6d 9a3e 83e8 b53e d3af 6f3e 7971 3e3c
00000030: b04f b03e 58fe fa3d d763 843e c5e3 d7bd
00000040: 59b0 a83d eb05 94be 3482 2ebc 1501 113e
00000050: 5c94 8ebe f59a 1a3d b78f 2fbd 5376 a63e
00000060: e342 e2bc 3d96 ebbd fe8d 213d c727 80be
00000070: b942 a53e 55c4 c13d 52a4 033e e820 723e
00000080: 9bae 7dbd 6fa5 83be b1a5 9a3e cb4c 5b3d
00000090: f721 943e d91e 0dbd 2ffa 56be f39d 573e
000000a0: 1888 65bd f834 993c 290e a7be 45ff 5f3e
000000b0: c0ea 483e fc75 20be fd8a 9fbd 8bc7 f0bd
000000c0: 950c 063c a3c4 203c d102 e23d a8eb 753e
000000d0: e57e 3abd 401e b43d a8c9 73bd 68b7 6ebe
000000e0: 476a 843e 3bca a9bd d82c 67bd 7bca 9c3c
000000f0: fcd6 523d d5f8 f4bc 1389 2ebd 585a e13d
00000100: 35ec 93bc 314f 0b3e f557 593e f038 593e
00000110: 8c59 3e3e 5848 48bb 3097 4dbe afa8 a2be
00000120: 20e5 4cbe 285e a43e 8746 95bb 13e5 c63d
00000130: 184f 3a3c 954f c6bd 0d40 593e 13a1 84be
00000140: b7ed 15bb 7be2 49bd d74b 73bd 21c2 9ebd
00000150: cb2c 833e 11a7 fb3d bd27 5dbc a7c7 013e
00000160: ab36 0e3e 93e8 58be a10d 383e 4c74 80be
00000170: f4fd 4d3e 255e 553e 01ab 913d d130 05bb
00000180: 2dec 2d3e 808c bb3e 6824 fb3d 93e4 47be
00000190: 276e 92be 5471 62bd 3b36 34ba 230d 11be
000001a0: bd50 5bbd a0a4 903e 4073 783e 2fa2 163e
000001b0: a152 97be 155b b33e 8dc7 863e 4966 01bd
000001c0: 5f10 a03e 0778 9ebe e82c 84be a3d3 713e
000001d0: d445 81bd 7f2f ca3c c0ca 37be 51e4 5e3e
000001e0: d430 a03e 6573 af3e 5ce3 38be 8060 a73e
000001f0: 50a8 e83d 756f d9bb 2991 9dbd 48bf 5a3e
0.016984751 -0.12178252 -0.22801316 0.07461777 -0.22423887 0.3298826 -0.0023681382 0.024649516
0.30161846 0.35528955 0.23406915 0.011623734 0.34435797 0.122555435 0.25857422 -0.105414905
0.08236761 -0.28910765 -0.01065116 0.14160569 -0.27847564 0.037745435 -0.042861667 0.3251215
-0.027619785 -0.11503265 0.039442055 -0.25030348 0.32277468 0.094612755 0.12855652 0.23645365
-0.061934095 -0.25712153 0.30204538 0.053540032 0.28932163 -0.034453247 -0.20993875 0.21056347
-0.056037992 0.018702015 -0.3262799 0.21874721 0.196208 -0.15670007 -0.07790182 -0.1175681
0.008181711 0.009812507 0.110356934 0.24015677 -0.045531172 0.08794832 -0.059518486 -0.23312151
0.25862333 -0.082905255 -0.05643925 0.019139519 0.051474556 -0.029903809 -0.042611193 0.1100356
-0.018056968 0.13604428 0.21224959 0.21213126 0.18588847 -0.0030560698 -0.20077205 -0.3176932
-0.20009279 0.32103086 -0.0045555267 0.09711661 0.0113713965 -0.09683148 0.2121584 -0.2590414
-0.0022877285 -0.049288254 -0.0593985 -0.07751871 0.25620112 0.12287725 -0.013498244 0.12673818
0.13888042 -0.2118247 0.17973949 -0.25088727 0.20116407 0.20836695 0.071126945 -0.0020323286
0.16984625 0.3663063 0.12262803 -0.19520788 -0.28599665 -0.05528386 -0.0006874536 -0.14165168
-0.053543795 0.282506 0.24262714 0.14710306 -0.29555228 0.35030428 0.2632412 -0.031591687
0.3126249 -0.3095095 -0.2581551 0.23615889 -0.06312147 0.024680851 -0.17948437 0.21766783
0.31287253 0.34267727 -0.1805548 0.3269081 0.11360228 -0.006635601 -0.07693703 0.2136203

block.0.weight f4 [128]
00000000: b802 843f d46f 7c3f 6b7e 7d3f 1b0b 7f3f
00000010: 63e1 803f 8310 843f f475 7b3f 64ba 7a3f
00000020: 23ce 813f d5bb 7d3f 4564 833f 2127 813f
00000030: 8841 7e3f d7b2 813f d222 843f 0d30 7d3f
00000040: 1c91 7d3f e3d6 7d3f 8fe9 803f ec47 813f
00000050: 80e6 793f b3d8 833f 45f9 7b3f 28cb 803f
00000060: c904 833f 0bc5 7e3f 13a5 833f dcfa 793f
00000070: b8ef 823f f8ad 813f 85cf 7b3f 7452 833f
00000080: 0464 7a3f c2c2 813f a063 803f f355 7f3f
00000090: e531 7f3f d873 813f 8556 7f3f 3491 823f
000000a0: b9c2 7c3f a546 7e3f 2d17 7b3f b7e9 813f
000000b0: 898a 833f 85c6 803f 6895 833f 61c9 813f
000000c0: b509 7b3f 0010 803f 4060 813f 63e7 7a3f
000000d0: 4394 7b3f b5aa 7c3f def1 833f c02a 7a3f
000000e0: 24e0 793f f73d 813f 803b 7b3f b082 7b3f
000000f0: 183b 813f 8186 7f3f 0391 7b3f bb10 7b3f
00000100: 3dfe 813f 45ad 7c3f 51f0 7f3f c9ce 803f
00000110: 0c7d 833f 142c 823f b0b4 7e3f b56e 7b3f
00000120: c748 803f a316 7c3f 75ae 7e3f fbd1 7f3f
00000130: a496 7f3f db8c 7e3f fb8b 7e3f f86a 7f3f
00000140: 6816 823f b18d 793f 692d 833f 3972 833f
00000150: 955a 803f 61ed 813f 7390 7c3f f01e 7d3f
00000160: ccb7 7b3f 9f7a 803f 686b 833f 51ed 7a3f
00000170: daab 833f 1dc2 7d3f 3318 803f 2baa 7d3f
00000180: 106d 823f ad5e 7b3f 1dda 803f e7f5 793f
00000190: 4d37 7f3f f3a4 813f e377 803f 755c 7d3f
000001a0: 67c1 813f fddc 7a3f acf6 803f 7865 7b3f
000001b0: a001 7e3f 0cb5 7a3f 1d0f 7e3f 93ae 803f
000001c0: ebf0 793f 1bd7 7a3f 65b0 7a3f cbae 813f
000001d0: 3b31 7e3f 3837 803f 0da7 7d3f bcee 833f
000001e0: b1be 833f d0f1 803f a2b3 823f ac1d 833f
000001f0: 23e2 7e3f 1b7e 7c3f ab5d 7a3f 0724 7c3f
1.031333 0.98608136 0.99021024 0.9962632 1.0068783 1.0317539 0.9822686 0.9794066
1.0141033 0.99114734 1.0264975 1.0090066 0.9931874 1.0132703 1.0323126 0.98901445
0.99049544 0.99156016 1.0071276 1.0100074 0.9761734 1.0300506 0.9842723 1.0061998
1.0235835 0.99519414 1.0284752 0.97648406 1.0229406 1.0131216 0.98363525 1.0259538
0.9780886 1.013756 1.0030403 0.99740523 0.9968551 1.0113478 0.99741393 1.0200562
0.98734623 0.99326545 0.9808224 1.0149449 1.0276653 1.0060583 1.027997 1.0139581
0.98061687 1.0004883 1.0107498 0.9800932 0.98273104 0.9869798 1.0308187 0.9772148
0.97607636 1.0097035 0.98137665 0.9824629 1.0096159 0.9981461 0.98268145 0.98072404
1.0155712 0.9870189 0.9997607 1.0063106 1.0272536 1.0169702 0.9949446 0.982158
1.002221 0.9847204 0.9948495 0.9992978 0.99839234 0.9943368 0.99432343 0.99772596
1.0163088 0.9748183 1.0248233 1.0269233 1.0027643 1.0150567 0.9865791 0.9887533
0.98327327 1.0037421 1.0267153 0.98018366 1.028682 0.9912432 1.0007385 0.9908778
1.0189533 0.9819134 1.0066563 0.9764084 0.9969376 1.0128464 1.0036587 0.98969203
1.0137147 0.9799345 1.0075278 0.98201704 0.9922123 0.97932506 0.9924181 1.0053276
0.97633237 0.97984475 0.97925407 1.0131468 0.9929387 1.0016851 0.99083024 1.0307231
1.0292569 1.0073795 1.021107 1.024343 0.9956381 0.9862992 0.97799176 0.98492473

block.0.bias f4 [128]
00000000: 13df 013d 31a0 c13c bb32 313c afa6 ac3c
00000010: 97d0 d63c 5f21 f83c cfe3 1dbc b575 0cbc
00000020: 6f4b fe3c 8708 a73c 77ca ea3c 016f c13c
00000030: b050 33bb 6cbf e73c 807e 023d 9828 7c3c
00000040: 4b49 4cbc 870c 5a3c fddc f83c 5f03 f63c
00000050: f5e8 003b 88b2 fd3c 8f1e d93c db31 e33b
00000060: 3459 fa3c bc0b eb3c bbea ff3c cedb a1bb
00000070: 1461 7e3c a133 c03c 5360 8ebb 932e 003d
00000080: 9dd3 abbc 6d08 f63c a5bf db3c 47dc f43b
00000090: 5beb cd3c 0b6d b23c 1b49 df3c bbce 913c
000000a0: 7d34 e03c 97e7 5f3c 112e 8ebc e3bd f83c
000000b0: 4591 ff3c 7bd8 f33c 04ea f93c ac97 e03c
000000c0: 04bb 973b 1fd2 eb3c 1bbd ef3c 53ec f03c
000000d0: e190 b9bc 0038 dbb7 139f f93c 3d9f 23ba
000000e0: 11e7 9bba 82b4 053d 93dd dabc 704f 5b3b
000000f0: 891a e03c 816f de3c c8ee ab3c 8c3f c23c
00000100: 0646 943c b9b1 56bb 8fba e13c b520 f43c
00000110: 386a b03c cdfb e43c a102 af3c 48c9 cabc
00000120: 0d02 cfbc 133f 5c3c e786 b33c ebae 123b
00000130: 6e4a 89bc 0d73 a3bc 5b06 bdbb 09a2 bb3c
00000140: cb6e 8239 7562 3b3b 9054 ec3c d802 cb3c
00000150: 7991 be3c 33f3 e03c 8973 9c3c 553b 9cba
00000160: 6b60 5fbc 08e1 463c 233a fe3c a30d d33b
00000170: 1d43 e23c 5461 2f3b 953d e63b c517 aebb
00000180: 9595 ca3c ecff bfbb afb1 cb3c ec9f cebc
00000190: d0bb ec3c 80a4 ea3c 33d3 ed3c 8019 c13c
000001a0: dd7e d33c 6eb7 293b f87b c33c a18f 4cbc
000001b0: 9b27 653c 601f ac3c a1b2 7a3b fb24 f2ba
000001c0: 3352 ddbc 9dbf a2bc 9deb 65bc 083f 533c
000001d0: 6d52 6a3c 0c80 0c3c 799e 953c 3319 f93c
000001e0: f5ee f43c 5836 543c 75b0 ea3c bde1 f53c
000001f0: 6bf3 acb9 ff56 1ebc f0ba 9c3c b2b0 a0bb
0.03170688 0.023635956 0.010815318 0.021075575 0.02622251 0.03028935 -0.009636833 -0.008572985
0.031041829 0.020389808 0.028660996 0.023612501 -0.0027361326 0.02828952 0.03185892 0.015390538
-0.012468646 0.013308651 0.030378813 0.030030904 0.0019670103 0.03096892 0.02650383 0.0069334335
0.030560113 0.028692119 0.031239858 -0.004939533 0.015526075 0.023462119 -0.004344979 0.031294417
-0.020974929 0.030033315 0.026824782 0.007472548 0.02513664 0.021780511 0.02725654 0.017798772
0.027368778 0.013666055 -0.01735595 0.030363983 0.0311972 0.029766312 0.030507095 0.027416073
0.0046304483 0.028786717 0.029264977 0.029409563 -0.022652091 -2.6132911e-05 0.03047136 -0.0006241685
-0.0011894425 0.03264285 -0.026716983 0.0033464096 0.027356403 0.027152779 0.020987883 0.023711942
0.018099796 -0.003275974 0.027554778 0.029800752 0.021535024 0.0279521 0.021363558 -0.024754182
-0.025269533 0.013442772 0.021914912 0.0022382091 -0.016759124 -0.019952321 -0.00576858 0.022904413
0.0002487808 0.002859262 0.028848916 0.02478163 0.023262726 0.027459716 0.01909806 -0.0011919538
-0.013633828 0.012138613 0.031033581 0.0064408346 0.027619893 0.0026760893 0.007026384 -0.005312892
0.02472953 -0.0058593657 0.024865 -0.025222741 0.02889815 0.028642893 0.029031372 0.02357173
0.025817329 0.0025896686 0.023862824 -0.012485416 0.013986493 0.021011055 0.0038253444 -0.0018474156
-0.027016735 -0.019866759 -0.014033225 0.012893446 0.014301878 0.008575451 0.018264042 0.030407524
0.0298991 0.01295241 0.028648594 0.030014867 -0.00032987757 -0.009664296 0.019132107 -0.004903876

block.0.running_mean f4 [128]
00000000: aca1 673e 99ac 0d3e f0e5 313d c335 763e
00000010: b18c 1c3e 2b8a ec3e 9d4f 4e3e 431e eb3d
00000020: c4d1 993e d0a1 b73e eb62 d23e 5734 2c3e
00000030: a5a1 cd3e 80c2 783e 9122 973e 4db3 c33d
00000040: f4c3 513e da62 933d bdbc 583e a14c 833e
00000050: 23b8 3e3d 00fa 673e 2dc6 ba3d 7849 d13e
00000060: 2274 8a3e 3d29 023e f1d7 6c3e 7532 f63d
00000070: cdf8 b73e e0f8 683e 0de9 a83e a51d 863e
00000080: d69a 1f3e bcde 993d e9c7 943e 6f27 0e3e
00000090: ab52 b83e 8117 1e3e 0175 8e3d 157b ae3e
000000a0: 86b7 203e b3a0 5a3e 6821 4f3d 3d32 803e
000000b0: 1ba6 de3e cb92 0c3e 61ff 683e cf24 113e
000000c0: edb9 403e 17fc 1f3e d4a8 443e 4083 883e
000000d0: f1b1 c23d c490 a83e 74ce 323e e5bb d23d
000000e0: 512f 8f3e d056 ba3d 8db7 063e 541b fc3d
000000f0: c877 423e a104 303e cca2 3c3e 9a06 963e
00000100: f75e 393e ec96 8c3e 5bb3 803e 43b6 973e
00000110: df60 903e 6139 b03d 1578 263e 6739 1a3d
00000120: fdbf 773d 346b ac3e 5bf2 4b3e 61ab 853e
00000130: 4543 f83d 55a2 9d3d 615d 9a3e cd83 d53d
00000140: c781 483e 4ce8 cd3d 3154 8a3e a4b6 533e
00000150: 7be7 9a3e 8d61 6e3e 9369 313e 3728 873e
00000160: 2869 3a3e c30c 7b3d ce1d 873e 3831 3b3e
00000170: e160 813e 2c28 ba3e 1112 8e3e c034 7c3e
00000180: 18a1 a03e 83ae cf3e 79f3 863e b397 9d3d
00000190: cb9e ad3d 184f 303e 5571 1f3e 9ad5 203d
000001a0: 91ef 343e 29e6 a43e f301 b33e 89a8 893e
000001b0: 4fef 2e3e fc0a b33e 6d5f 993e 018a 813e
000001c0: 0f6f c23e f742 ad3d fd64 cd3c b75b b13e
000001d0: b812 1f3e d3e3 463e 01b5 8e3d 8065 9d3e
000001e0: 8cb8 de3e bb46 d33e 0da9 df3d ed23 b03e
000001f0: a170 703e eddf 593e b043 663e 08f9 4b3e
0.22620267 0.13835372 0.043432176 0.24043946 0.15288045 0.46199164 0.20147558 0.11480381
0.3004285 0.3586564 0.41091093 0.16816841 0.40162387 0.24292946 0.2951856 0.09555683
0.20484906 0.07196589 0.21165748 0.256444 0.046562325 0.22653961 0.0911983 0.40876365
0.27041727 0.12711044 0.2312925 0.12021343 0.35932007 0.22751188 0.32990304 0.26194492
0.15586409 0.07513186 0.2905877 0.1388223 0.3600057 0.15438654 0.069559105 0.3407828
0.15695009 0.21350364 0.050568968 0.2503833 0.43486103 0.13727872 0.2275367 0.14174198
0.18820925 0.15623508 0.19205028 0.26662636 0.09506596 0.32922947 0.17461568 0.10289744
0.27965787 0.090985894 0.13155957 0.123099 0.18991005 0.17189266 0.18421477 0.29301912
0.18102632 0.27458894 0.25136837 0.29631242 0.28198907 0.08604694 0.16256745 0.0376524
0.06048583 0.3367554 0.1991667 0.26107314 0.12122206 0.07696978 0.30149367 0.1042553
0.19580756 0.10054073 0.27017358 0.2067514 0.3025473 0.232794 0.1732543 0.2639787
0.18204176 0.061291467 0.26389927 0.18280494 0.25269225 0.36358774 0.2774816 0.24629498
0.31372905 0.4056283 0.2635763 0.0769495 0.08477553 0.17217672 0.15570576 0.039266206
0.17669512 0.32206848 0.34962425 0.26886395 0.17083476 0.34969318 0.29955617 0.253006
0.37975356 0.08460038 0.025072569 0.34640285 0.15534484 0.19422846 0.069681175 0.307415
0.43500173 0.412649 0.10920916 0.3440241 0.23480465 0.21276827 0.22486758 0.19919217

block.0.running_var f4 [128]
00000000: 5fae 183e 5144 3e3e ae81 0d3e 603a 513e
00000010: 18c0 373e 2de0 ab3e fdbd 4a3e 894e bb3d
00000020: acb4 bf3d c5c7 283e ca3a 903e 9065 123e
00000030: d87f 5f3e 6d83 eb3d c860 093e 20da e93d
00000040: ece7 083e 7b67 543e 638b de3e b5f4 413e
00000050: 5d0b cf3d 770b 163e 89a6 ca3d 4812 663e
00000060: 8727 013e e9d6 db3d ac19 313e 9500 473e
00000070: c9c3 0a3e 6b7d 763e 9fd3 623e 2cd2 b23d
00000080: 89c8 8c3e df76 a83d adfd 103e 3f37 743e
00000090: fd89 423e 8b3f d93d 7fe0 143e 8388 373e
000000a0: c126 233e 487d 383e 08f3 803d a05d 523e
000000b0: b73b 9b3e bee5 183e 5323 333e b38c ef3d
000000c0: ab70 ff3d cfe5 c43d 27c8 213e 04c3 553e
000000d0: e3c2 3e3e 75f6 973e 4710 da3d e841 e83d
000000e0: 107f 303e bf2b f93d 38ce c13e 9346 3c3e
000000f0: e047 2d3e 852e 8b3e 5f9a 603e 6742 943e
00000100: 812e 1f3e 8b26 803e 2921 4a3e b9f4 9e3e
00000110: c92a fe3d f436 733d 5de1 053e 9e0a 9d3e
00000120: 5591 083e bfe7 e43d 6b7d ba3e bdbf 963e
00000130: 2d5f 033e a820 e83d 7d7d f53d 9cba be3d
00000140: d4a8 ca3d 934f 973e d003 253e 57cc 073e
00000150: a94c dd3d 8000 383e ad1d 363e 7f38 8b3e
00000160: 3e3b 9f3d 49ad 7d3d 6f7c de3d 500f 273e
00000170: 25a4 eb3d 0d0e 783e b11b 843e 28a1 383e
00000180: 5b4e 113e 09ba 703e 2454 5c3e 5c79 313e
00000190: 03b1 a93d 577f 263e 7fd9 093e 55b9 1f3e
000001a0: 49c9 f13d 1014 393e 6f48 983e d105 1a3e
000001b0: 4798 f23d 735e 443e df47 053e b0a7 3b3e
000001c0: 43ec 5b3e 3be7 1c3e dc4e fe3d 5895 3e3e
000001d0: 1bae e13d 3dd2 923e 9386 bd3d 8b58 093e
000001e0: e037 953e d4e7 3b3e 021b 993d 9f79 133e
000001f0: fd6e f63d 0f22 913e 1d88 d63e 293f d03d
0.14910267 0.18580748 0.13819 0.20432425 0.17944372 0.3356947 0.19799037 0.09145839
0.09360632 0.16482456 0.28169852 0.14296556 0.21826112 0.11499677 0.13415825 0.11418557
0.13369721 0.207426 0.4346572 0.18941005 0.10109589 0.14652811 0.09895045 0.22467911
0.12612735 0.1073435 0.1729495 0.19433816 0.13551249 0.2407128 0.2215104 0.08731493
0.27496746 0.08225798 0.1415927 0.238492 0.18997951 0.10607823 0.14538763 0.17923169
0.15932752 0.18016541 0.062963545 0.20543528 0.30318996 0.1493139 0.17493944 0.11696758
0.124726616 0.09614145 0.15799008 0.20875174 0.18629031 0.2968022 0.10647636 0.113406956
0.1723597 0.12166547 0.37852645 0.18386297 0.1692195 0.2718393 0.21933888 0.2895691
0.15545084 0.25029406 0.19739212 0.31046084 0.12410504 0.05937858 0.1307425 0.30672163
0.1333669 0.111770146 0.3642381 0.2944316 0.12829275 0.11334354 0.119868256 0.09312937
0.09895483 0.29552898 0.16114736 0.13261543 0.108056374 0.1796894 0.17784758 0.2719154
0.077749714 0.061932836 0.108635776 0.16314435 0.115059175 0.2422411 0.25802377 0.18030226
0.14190046 0.23508467 0.21516472 0.17331451 0.082857154 0.16259514 0.13461874 0.15598042
0.1180597 0.1807406 0.29742762 0.15041281 0.11845451 0.19176655 0.13015698 0.18325686
0.21476845 0.15322582 0.12417385 0.18611658 0.11019536 0.28676024 0.092541836 0.13412683
0.29144192 0.18350154 0.074758545 0.14401864 0.12032888 0.28346297 0.4190072 0.10168297

block.3.weight f4 [64, 128]
00000000: 14a0 13bd 082b 73bd 7944 933d 995e a0bd
00000010: 390a 5a3d 4d27 0abd c166 2bbd 67d4 b1bc
00000020: a3e8 b7bd ab10 07bd 1129 a63d 5c8c 9fbd
00000030: d95a 9e3b 6a05 a5bd d856 4f3c c9a1 c13b
00000040: fd5c 65bd 2d54 ce3c 7186 b1bc 83db bbbc
00000050: 7c6b 893d c120 503d 0f4e 033b 4038 46bd
00000060: 9688 943b 5758 1fbc 3bbe ad3b c788 a43c
00000070: c204 823d bd5d 88bd 482d 4f3c b963 cfbd
00000080: 24fd fcbc 17f1 55bd 1fd2 ae3d 279e 9c3d
00000090: 5bd2 293d a5c7 043d 3fdb 343d 99f4 873b
000000a0: dfa2 753d c3fd d53d e59f b8bd f1f6 93bd
000000b0: 5b9a 3a3d 79b3 6e3c c54c 033d 48bd 64bd
000000c0: 0b68 5939 3c4f 88bd 0302 e4bb ac53 ccbd
000000d0: 89cc 903d 735d 5c3c 913c 073d a442 1e3d
000000e0: ff21 18bd 2335 3a3d ec83 4dbd 9e99 23bd
000000f0: fc5d a8bd 3853 ecbc e09a 5ebd a9ff d63c
00000100: 2ce6 87bd 9b10 5f3d 4774 9ebd 6bf9 2dbd
00000110: 4bae 583d f55d aebd 11d1 53bd 818d 433d
00000120: 38d7 333c 17e9 3e3c 5c5c 92bd 510d c7bc
00000130: a5b7 903d 9d0d 91bd 1fa2 933d f968 273c
00000140: fb64 903d 310d f1bb 1d80 aebd 91f8 6f3d
00000150: f149 8a3d 328c 85bc efab 083d 0dcb 033d
00000160: dd2f 723c 1fe1 483c 31b3 063d 04d1 52bd
00000170: 2b13 02bd bfab 073d 730e 39bd 5483 0d3d
00000180: 385b 6d3c c093 92bd d359 61bc 2fa5 6fbd
00000190: 2540 93bd 60d2 983d 6114 b03d a52a 90bd
000001a0: 0d26 7fbd d4e4 7d3d f5c5 913d fb48 9fbc
000001b0: d17c 873b d929 28bd a7d3 17bd 2d2d 42bd
000001c0: afed d3bc 905a 6fbb 6976 a33b acee d3bb
000001d0: 8507 aebd c841 68bb 3f1c c4bd 612c 8abd
000001e0: 008d 4c3c 1ba5 753d 7560 0c3d b91a 89bd
000001f0: e540 403d 20f2 8ebd 2465 2c3c a449 633d
00000200: 4d3f c8bc 0926 d8bb 0cfd 0fbd 78b0 183d
00000210: 08c4 b53c 6f52 793c ee28 a23d e39f 7ebd
00000220: 4d78 30bd d875 26bd d728 81bd 1bd4 83bd
00000230: c819 0e3d 5bb3 79bc 9023 2c3d 670c a33d
00000240: a7ea a23d 7d89 1f3d 0953 6b3d c78e 013d
00000250: 3b55 893d 0ca9 15bd d078 78bd a599 533d
00000260: 13bc 743c e1a3 173c 83df 6a3d 05cd 313d
00000270: 2dd0 39bd 5116 913d b774 6ebd 385f c0bd
00000280: e557 a43d e5a9 3a3d 4bc2 3ebc 9516 093c
00000290: fc2a a5bc 5598 8ebd b92e a9bc 9504 ea3c
000002a0: 5fb8 03bd e3dc 27bd 65c7 88bd eb62 ffbc
000002b0: adba 103d 8f77 313d 81a3 23bd dc55 3cbd
000002c0: 9390 e93c 841c a9bd 8882 e33c 4d28 c43c
000002d0: 70aa b8bc ab2b 003d 67ad 06bc 89e4 503a
000002e0: a0ab 503d e347 993d 6914 753d 1c04 89bd
000002f0: 5037 05bd 1f62 973d e1e1 003d d5f8 7b3d
00000300: 754d 07bc 748a 4a3d 0984 53bd dffa 903d
00000310: 2c3f 71bc e8da 60bd e802 2e3c f8e1 843d
00000320: bdab 523b 5b1e 41bd fb7d 5a3d 74ee b43d
00000330: 4d1c 3a3d 2949 db3c a00f 613d 8f75 8abd
00000340: 4dc4 c03b 5c09 513d bc12 043d b343 823c
00000350: 95dc 8cbd 5b76 bd3c 9576 703c e4ca 2b3d
00000360: 187b 4b3c cba4 ac3d 94eb 71bd 93eb 983c
00000370: a8b4 09ba 3c00 e4bc ec43 6bbc eee2 903d
00000380: af81 9b3c 5400 dd3b 432e b33c 0c6c 65bd
00000390: e596 8c3a 2166 0fbb a7e1 90bd d9be b63d
000003a0: d0ca 3e3c 294e 563d b3e6 ac3d ef58 4c3c
000003b0: 4b38 67bd 5f32 83bd b19d 9bbb 230c 273d
000003c0: 23e3 883d bd57 ef3a 89e3 05bd 1158 163d
000003d0: bb74 5fbd e1c0 cabc 94d5 cf3c fa05 a73c
000003e0: 7a88 0a3d 75ef 91bb 3de5 a1bb b3a3 cd3d
000003f0: 8933 1fbd ed8c bb3d 05a6 2fbd b3c0 833d
-0.036041334 -0.05936721 0.071907945 -0.07830543 0.053232405 -0.033728886 -0.04184604 -0.021707727
-0.08979919 -0.03297488 0.081133015 -0.07790443 0.004832607 -0.08057673 0.0126549825 0.005909179
-0.055996884 0.025186623 -0.021670552 -0.02293182 0.06709954 0.050812487 0.002003554 -0.048393488
0.004532884 -0.009725652 0.0053022183 0.020084752 0.06348564 -0.06658504 0.012645073 -0.101264425
-0.030882426 -0.052231874 0.08536171 0.07647353 0.041460376 0.03241696 0.044154402 0.0041490314
0.05996978 0.10448792 -0.090148725 -0.07224835 0.04555736 0.014569157 0.032055635 -0.055844575
0.00020733492 -0.06655738 -0.0069582476 -0.09976897 0.07070262 0.013450014 0.033016745 0.038637772
-0.037141796 0.04546083 -0.05017464 -0.039941423 -0.08221051 -0.028848276 -0.05434692 0.026244955
-0.06635699 0.054459196 -0.07737022 -0.04247419 0.052900594 -0.08514015 -0.051713053 0.04774237
0.010976605 0.011652253 -0.071465224 -0.024298342 0.070662774 -0.07082675 0.072086565 0.0102178985
0.070505105 -0.007356309 -0.085205294 0.05858666 0.067523845 -0.016302202 0.033367094 0.032176066
0.014781919 0.012260704 0.032885734 -0.051468864 -0.03175656 0.033122774 -0.045179795 0.034549072
0.01448708 -0.07157087 -0.013754326 -0.05850714 -0.07189969 0.07462001 0.08597637 -0.07039384
-0.062292147 0.061985806 0.071178354 -0.01944398 0.0041347523 -0.041055534 -0.03706708 -0.047406364
-0.025870172 -0.0036522485 0.004988481 -0.006467661 -0.08497528 -0.00354396 -0.095757 -0.06746746
0.012484789 0.05997191 0.034271676 -0.0669455 0.04693689 -0.069797754 0.010522161 0.05549015
-0.024444247 -0.006596331 -0.035153434 0.03727767 0.022188202 0.015217408 0.07917963 -0.0621642
-0.043083478 -0.04063973 -0.06306618 -0.0643694 0.034692556 -0.015240516 0.042026103 0.0796135
0.07954913 0.03894948 0.057452235 0.031630304 0.067057095 -0.03653817 -0.06066209 0.0516602
0.0149374185 0.00925538 0.057342064 0.043408412 -0.045364548 0.07084335 -0.058216777 -0.093931615
0.08024577 0.04557218 -0.011643003 0.0083672 -0.020162098 -0.06962649 -0.020652162 0.028566638
-0.03215825 -0.04098214 -0.066786565 -0.031175097 0.035334278 0.04332691 -0.03995085 -0.04598032
0.028511321 -0.08257392 0.027772203 0.023944998 -0.022542208 0.031291645 -0.008220053 0.00079686247
0.050944924 0.074844144 0.059833918 -0.06690237 -0.032523453 0.07391762 0.031465415 0.0615166
-0.008258213 0.049448445 -0.05163959 0.070791 -0.014724534 -0.054896265 0.01062081 0.064884126
0.003214582 -0.04714809 0.0533428 0.08834544 0.045437146 0.026768284 0.05494654 -0.06760704
0.005882776 0.051034316 0.03224443 0.015901422 -0.0687801 0.023127725 0.01467671 0.04194154
0.012419485 0.08429869 -0.059062555 0.018667018 -0.0005253055 -0.027832143 -0.014359456 0.070745334
0.018982736 0.006744424 0.021872645 -0.056011245 0.0010726122 -0.0021880942 -0.0707429 0.0892312
0.011645034 0.052320633 0.0844244 0.012472375 -0.05645017 -0.06406092 -0.004749023 0.04078306
0.06683948 0.0018260401 -0.032687698 0.03670508 -0.054554682 -0.024750175 0.025370397 0.020388592
0.03382156 -0.0044535943 -0.0049406574 0.10040989 -0.038867507 0.09157739 -0.042882938 0.06433239

block.3.bias f4 [64]
00000000: fbc7 903d 9b59 edbc b9de 80bd d1de 64bd
00000010: 1370 12bd f16d b6bd 0587 e5bc 091d 66bd
00000020: 798b 11bd 59fa 423c a887 533c 1c96 303d
00000030: f950 6dbc 926f 173d 69d9 26ba 99c1 9f3d
00000040: 133d 6dbd 8775 913d 598f c1bc 7f1b 843c
00000050: 4b39 c7bc 518c e43c 055d 72bd a574 96bd
00000060: 2f8f 61ba ff57 8fbd 4173 1bbd 7c4f c9bc
00000070: 1f9c a1bc 0a87 26bd d8ce 613d 8c7e 513c
00000080: 4c98 3d3d 3df0 1f3d 1362 44bd 0cd5 a03d
00000090: 50a0 2d3d 1f5c 87bd fcad 063c 8ef5 8f3c
000000a0: ec61 45bc 4778 4fbd 88a0 a63d a591 8b3d
000000b0: fdbf 993d 15f3 e33c ed30 303d 3c6f 8f3c
000000c0: 54b1 1fbd 5d7c 74bd 2bd4 86bd b525 f83b
000000d0: dc17 01bd e4fd 86bd f9b0 903d 68b5 443d
000000e0: a775 443d 7fc0 31bc dbbc 063d d340 b5bd
000000f0: 4b9a 21bc e020 c6bc 602f a63d c8ef d03b
0.07069393 -0.028973391 -0.06292481 -0.055876557 -0.035751414 -0.089076884 -0.028018484 -0.056180034
-0.035533402 0.011900508 0.012910761 0.043111905 -0.014484637 0.036971636 -0.0006364794 0.07800598
-0.057919573 0.07102495 -0.023627924 0.016126392 -0.024319312 0.02789894 -0.05917074 -0.07346467
-0.0008604405 -0.06999206 -0.03795171 -0.024574034 -0.019727765 -0.040656127 0.055128902 0.012786519
0.04628782 0.03904747 -0.047945093 0.078531355 0.042389214 -0.066093676 0.008220192 0.017573144
-0.012047272 -0.050651815 0.08136088 0.06814889 0.07507322 0.027825871 0.04301541 0.017509095
-0.038987473 -0.059688915 -0.065834366 0.0075728544 -0.031516895 -0.065913945 0.07065005 0.048024565
0.047963765 -0.010849117 0.03289495 -0.08850255 -0.0098634465 -0.024185598 0.08114505 0.0063762404

block.4.weight f4 [64]
00000000: 7bab 7c3f 2c07 7c3f 3435 7f3f e411 843f
00000010: 2d1c 7f3f 31d0 833f afce 7f3f 2068 823f
00000020: 27e5 833f 4c9f 833f f5b2 813f 4d56 7f3f
00000030: d9c5 7b3f 7a54 823f 7009 843f 29f2 833f
00000040: 74d6 833f 09b1 833f 2f59 7d3f edd4 833f
00000050: 7938 7a3f 8853 7c3f e783 7c3f 755d 7b3f
00000060: 6fc0 7d3f 04ea 833f 5f4e 7b3f b08a 7a3f
00000070: b02e 7b3f b9cc 833f 3b04 843f e58e 803f
00000080: 7bc2 833f afc4 833f 59f0 833f 9df0 833f
00000090: 5bdf 833f 9822 823f d713 843f d433 823f
000000a0: 257f 833f b9f0 833f daf4 833f a3f5 833f
000000b0: 27a8 833f 1813 843f 6dbb 833f c84e 833f
000000c0: 65e0 833f f18b 823f cdce 833f 2101 7f3f
000000d0: a8c4 833f 08dc 7d3f 04f4 833f e1bc 833f
000000e0: b959 813f ad9f 7e3f 1900 7b3f d09b 823f
000000f0: ebcb 833f 90f7 833f 9386 7c3f d440 823f
0.9869916 0.98448443 0.99690557 1.031796 0.9965237 1.029791 0.9992475 1.0188026
1.0304307 1.0282989 1.0132738 0.9974106 0.98348767 1.018203 1.031538 1.0308276
1.0299821 1.0288402 0.9896421 1.0299355 0.9774242 0.9856496 0.98638767 0.9818948
0.99121755 1.0305791 0.9816646 0.9786787 0.98118114 1.0296851 1.0313791 1.0043608
1.0293726 1.0294398 1.0307723 1.0307804 1.0302538 1.0166807 1.0318555 1.0172067
1.0273176 1.0307838 1.0309098 1.0309337 1.0285691 1.0318327 1.0291573 1.0258417
1.0302855 1.0198957 1.0297486 0.996111 1.029439 0.99163866 1.0308843 1.0292016
1.0105506 0.99462396 0.98047024 1.02038 1.0296606 1.0309925 0.98642844 1.0176034

block.4.bias f4 [64]
00000000: f92a 4dbc 1ad3 98bc f754 bd3c dc2f 023d
00000010: a82c 15bc ea50 023d 68c0 5b3a 3012 653c
00000020: 65a2 f73c 387d da3c 2af2 913c 6058 77bb
00000030: 8c2b dabc 651f b93c cd4c 003d 1d23 fb3c
00000040: 009d f13c cfe1 fa3c c8b5 ddbb 7405 f53c
00000050: b9ef d6bc cf74 93bc 303b 7abc a747 87bc
00000060: 574b f9bb 1b34 ff3c 0972 bfbc 534a cbbc
00000070: 359f afbc 70ac ec3c f535 023d c214 033c
00000080: 4b8c fe3c 2b5a f93c a7fe f43c 6620 023d
00000090: 270f fc3c f916 a23c cb41 033d a5ad 823c
000000a0: 3bd9 d93c 882e f63c ecbc f93c 7556 fe3c
000000b0: d4ef e83c 8f8d 003d 2347 dd3c 1583 783c
000000c0: 13bc f93c 4faa b43c 4c53 fa3c 5e48 18bb
000000d0: b575 ef3c b152 9bbc 68d4 ff3c 61e0 f23c
000000e0: c7ac 1c3c 8493 85bb 23b5 7fbc 8725 9f3c
000000f0: 23a2 f93c f0e5 fe3c fd8e 6ebc 88ee 9d3c
-0.0125224525 -0.018655349 0.023111803 0.031783924 -0.009104885 0.031815447 0.0008382858 0.013981387
0.030228803 0.026671037 0.017815668 -0.0037741885 -0.026632093 0.022597978 0.031323243 0.030656392
0.029493809 0.030625252 -0.006766055 0.029909827 -0.026237356 -0.018000035 -0.0152729 -0.016513659
-0.007607858 0.031152776 -0.023369806 -0.024815714 -0.02143822 0.028890818 0.03178974 0.0080005545
0.031072756 0.030438503 0.029906584 0.03176918 0.030768944 0.019786345 0.032045167 0.01595194
0.026592841 0.030051485 0.030485593 0.031047085 0.028434671 0.031385 0.02701146 0.015167971
0.030485189 0.022053866 0.030557297 -0.0023236494 0.029230932 -0.018960329 0.031229213 0.029648008
0.009562678 -0.004076423 -0.015607151 0.019427074 0.03047282 0.031115502 -0.014560458 0.01927878

block.4.running_mean f4 [64]
00000000: 1cea efbd da11 1f3e b79c adbe 65b4 b7be
00000010: 2459 11bd fcb6 d0bd aba7 7ebc 8fae 23be
00000020: a432 10bf d014 89be 6f95 64be 1724 80bd
00000030: 3092 c33e fd1f 0bbe 171a 75bd 6d45 b8be
00000040: 655a c4be 21b3 8e3c d30e d8bd fdee c4bd
00000050: 0345 51be 189f ad3e d58c cf3e a4ae 813d
00000060: 8572 0d3d cf4c 89be 4405 9a3e 3ff4 c33d
00000070: b0ab d7bc 33db b3be 6026 6abd 332a 373d
00000080: 5f1d 74bd b1d4 bebc cb45 50be f8f7 31be
00000090: 5c83 adbd fd2e 3d3d 9fda 57be 75d6 803e
000000a0: fc53 44be b5cd 03bf 013c 25be a54a 35bc
000000b0: a915 65be 3d3e bdbd 7984 393e ab59 d83d
000000c0: 953e 68be 0f93 4ebe 22f4 123d 6faa 7d3e
000000d0: f982 88be b540 ce3d 55c2 a0bd cfb0 9dbc
000000e0: a08f fdbd 753c b7be c069 ba3d 08ca a5bd
000000f0: 1975 39bd 1d08 c4be bc00 993e 7422 72be
-0.11714575 0.15534154 -0.33908626 -0.35879818 -0.0354854 -0.101911515 -0.015542905 -0.15984558
-0.5632727 -0.2677369 -0.2232263 -0.062568836 0.3819747 -0.13586421 -0.059839334 -0.35990468
-0.38350216 0.0174194 -0.105497025 -0.09615896 -0.20436482 0.3391044 0.40537134 0.06332138
0.034533042 -0.26816413 0.30082142 0.095680706 -0.026326984 -0.35128173 -0.057165504 0.04471798
-0.059598323 -0.023294779 -0.20339124 -0.17379749 -0.084723204 0.04618739 -0.21079491 0.25163618
-0.19172662 -0.5148576 -0.16136171 -0.01106516 -0.22371544 -0.09240387 0.1811694 0.10563978
-0.22680123 -0.20173286 0.035877354 0.24772047 -0.26662424 0.10070936 -0.07849566 -0.019249348
-0.1238091 -0.35788313 0.091022015 -0.08095175 -0.04527769 -0.3828744 0.29883373 -0.23645955

block.4.running_var f4 [64]
00000000: 2577 153f 55bf 4a3f f5fb be3e 8303 c73e
00000010: 61c9 fa3e 9130 263f 404f e53e e3f6 0a3f
00000020: 155d 263f 33c0 2e3f 4f66 1f3f dc8f 293f
00000030: a77e 9b3f 55ee c23e e925 b63e bb41 1f3f
00000040: fc2c b43e b561 1b3f d0fb 023f d5d7 c33e
00000050: c3b1 823f 7530 363f 15b1 613f ac28 383f
00000060: 2914 d13e a371 143f 8c98 523f ade7 223f
00000070: f8c0 f63e 00e4 f73e bd65 f03e d78f e73e
00000080: 6519 fb3e 4bb6 2c3f 1fdd a93e 24d3 fc3e
00000090: a4e0 093f 8dee fb3e d890 ea3e 4873 b63e
000000a0: 7b82 de3e 56d8 0e3f cd9d 193f 0532 0b3f
000000b0: b5f1 2b3f 458f e83e 9fd1 c13e 1128 ee3e
000000c0: 553e ee3e 0d39 2b3f 90df 1c3f 4115 fa3e
000000d0: 2c61 f03e 0908 c53e 240c d53e 834a f33e
000000e0: ab7d db3e f5d2 fb3e 64a0 233f 37fb e93e
000000f0: e4ff ea3e 9ded 013f 9dfe 083f 656c 003f
0.58384925 0.791982 0.37301603 0.38869867 0.48981765 0.64917856 0.44787025 0.5428297
0.6498578 0.6826202 0.62265486 0.66235137 1.2148026 0.38072458 0.35575798 0.6220967
0.3519057 0.60695964 0.51165485 0.38250604 1.0210499 0.7116769 0.8816083 0.7193706
0.40835693 0.57985896 0.8226402 0.6363476 0.48194098 0.48416138 0.4695262 0.4522693
0.49042812 0.67465657 0.33176515 0.49379838 0.538584 0.49205437 0.45813632 0.35634828
0.43458924 0.5579885 0.6000641 0.543732 0.6716569 0.45421806 0.3785524 0.46514943
0.4653193 0.6688393 0.6127863 0.4884434 0.46949136 0.38482693 0.41610825 0.47517785
0.42869315 0.49184385 0.6391661 0.45699474 0.45898354 0.50753194 0.5351351 0.50165397

block.7.weight f4 [32, 64]
00000000: acaf a7bd a4e9 26bd 34a1 25bd b12b 9dbd
00000010: 6d1c d03d 97ee 173e 5004 3fbc 1d10 70bd
00000020: cd9b 8cbd 2146 823d c090 a1bd a8bf b2bc
00000030: 1be1 b8bd ebcd bfbd 97be ac3d 2865 b63d
00000040: 3125 a83d dc17 d53d f364 303d 0afb 943d
00000050: 9b28 6ebd 24a4 cdbc dd41 943c 5314 76bd
00000060: 299e 073e 23cb 183e a515 c33d e51c c0bd
00000070: 1140 9b3d 9952 c93c ecdd 043e 1d23 4d3d
00000080: f4fe c83d 7dd6 f63d 60e9 8ebd 8384 8ebd
00000090: f27f 1bbd ab5f 56bd 4775 0b3e 0bee b4bb
000000a0: 4d3a 043e 2dae 633d a9ca bcbd c589 f13d
000000b0: 1056 633c a511 623d bbeb bf3d 9b93 773c
000000c0: 5fe3 a63d 6b5e be3d 3d73 8dbd 2f81 083e
000000d0: 59a5 bebd 97e4 62bd 58c1 c13c 014e 413d
000000e0: b0e6 eb3d 6cb6 613d 8ba8 3f3d dd4c b1bd
000000f0: 6595 1cba ab2f 143e c715 103d 501b 5abd
00000100: cd1d 053d c7b3 143d 2767 f53d afc7 043e
00000110: 0718 d33c 372e 143e 187c c7bd 3530 2dbd
00000120: a818 233d 3787 593d 6f57 163d ac8b 013e
00000130: 4c9d ebbc c3db 5b3d 4bd5 273d f3b9 ec3d
00000140: dddd ab3d b87a 97bc d81a 39bd 0172 193e
00000150: 89c8 9abb 01a2 afbd 77bd 4c3c 9b88 63bd
00000160: c0cf 41bc 90ae c03c 58e6 de3c 18ba ec3d
00000170: 0df8 c43d 9026 48bb 5071 ae3d f932 9cbd
00000180: 80d6 0fbd c01e d23d a8b1 323c b8e0 e1bc
00000190: 7990 643d a411 e73d dc31 16bd 0864 463d
000001a0: 6d2a b33d 5be7 cb3c d411 eb3d 0032 ce3d
000001b0: d588 133e f5ab f43b 355b 8dbc eb72 c1bd
000001c0: 4862 bbbd 7dac 71bc 2ee5 9c3d a051 f63d
000001d0: a046 e33d 5c1e b9bd fdf3 ae3d 1096 533d
000001e0: 6713 1dbd 85c9 cb3d dd29 81bd ad6c 15bc
000001f0: 259d 1b3e 958d 69bd c37a 093d 25af f23d
00000200: eb13 103d a917 003e e4d2 ca3d ef7f e53d
00000210: e77c 6a3d 1b2a dfbc 65fb 683c c17a fe3d
00000220: 3c80 023e b5c3 0b3e c0c0 043e 610f 893c
00000230: 3395 d1bd 2362 dabb 51fd efbb 8cee c23d
00000240: 6369 a53d 33a0 8d3d 0d47 f03d d9f4 5fbd
00000250: a992 973d bbea 12bb d910 a33c a7f7 3bbd
00000260: 1f64 ac3b 7824 ff3d 5c78 fdbc e033 aebd
00000270: 5b83 8dbd 690a a5bd 47d6 163d b5fa 353d
00000280: 2c06 2f3d c88a 203d e943 0a3e 15d4 50bd
00000290: 2818 dd3d 1337 acbc 8945 073c 157b 023e
000002a0: 0be0 183e bd8e e43d 40db 0d3e cfd1 3f3d
000002b0: 91e2 20bd fbdb c83d 3d49 2cbd 68e3 fe3d
000002c0: 770e 983d 168e 833d 8f00 0c3d b5fc 2dbd
000002d0: 25b5 9e3c c36d c63d 0343 42bd 4831 c83d
000002e0: 5846 de3d 40f9 c7bd 0232 aabd a59c ee3b
000002f0: 2335 8c3c ecab 4b3d 9c0c f23d c3c6 9f3d
00000300: d07e cd3d e5ad 123d 0dd2 c63d 0b6c 06be
00000310: 14f6 813d 7c2d 2dbd 5f53 02be 2ab2 9cbd
00000320: 95a9 5dba cbcb af3d e386 c03d 7169 0ebd
00000330: 4cc3 863d 2a91 06bd 5b8e b3bc 9077 cdbc
00000340: 4310 18bd 2c5e adbd 4ca1 f63c 2bcb a3bd
00000350: f503 bb3d e57d 103d 754b 74bd 4c1c 103d
00000360: 3843 df3d 74df 9f3a 3a06 263c d67b 9bbc
00000370: 14b2 bb3d 1bd5 a5bd d807 973d 45e6 51bd
00000380: 7437 b33d a5ce 00be 1f5b 74bd 7f9f dfbd
00000390: 0f41 85bb 70fc d5bd f7ae 92bd affa 223d
000003a0: 883c b5bd 4af1 02be d192 893a 7cbb 9cbd
000003b0: 79cc fdbd d42c cd3d fd16 15bd 0cab a9bd
000003c0: 6f73 8a3d fbea dfbd adc6 2fbc 7d58 4c3c
000003d0: 3084 f8bc e53d f1bd e8fd edbd fd2c 58bc
000003e0: 4a5f 81bb 4b82 c03d cce9 90bd 4723 df3c
000003f0: 2999 853d e5bd 023c 27f0 bf3b e0e1 d93c
-0.081878036 -0.04075016 -0.04043694 -0.07674349 0.10161672 0.14837109 -0.011658743 -0.058609117
-0.06865654 0.06361032 -0.07888937 -0.021819904 -0.090273105 -0.093654476 0.0843479 0.08906013
0.08210219 0.104049414 0.043065023 0.072744444 -0.058144193 -0.025102682 0.018097812 -0.060077976
0.13243927 0.1492124 0.09525613 -0.09380511 0.07580579 0.024575518 0.12975281 0.050082315
0.098142534 0.12052629 -0.069781065 -0.06958868 -0.037963815 -0.05233733 0.13618957 -0.005521541
0.12912865 0.05558603 -0.09218342 0.117938556 0.013875499 0.05519261 0.09371134 0.0151108755
0.08148836 0.092953525 -0.069067456 0.1333053 -0.09308881 -0.05539378 0.023651764 0.04719353
0.115186095 0.05510561 0.046791594 -0.08657239 -0.0005973189 0.14471309 0.03517702 -0.053248703
0.032499123 0.03630426 0.119825654 0.12966798 0.025768293 0.14470755 -0.09740466 -0.042282302
0.039818436 0.053107467 0.036704477 0.12650937 -0.028761528 0.053676378 0.040974896 0.115589045
0.083919264 -0.018491134 -0.045191616 0.14984895 -0.0047236127 -0.08575822 0.012496344 -0.0555502
-0.011829317 0.023520738 0.027209446 0.11558932 0.096176244 -0.0030540563 0.085177064 -0.0762691
-0.035116673 0.10259771 0.010906614 -0.027572975 0.055801842 0.112826616 -0.036668643 0.04843524
0.087483265 0.024890592 0.1147801 0.100681305 0.14407666 0.007466788 -0.017255405 -0.09445747
-0.09149605 -0.014750597 0.076609 0.120272875 0.11097455 -0.09038994 0.08542631 0.051656783
-0.03834858 0.09950546 -0.06306813 -0.009120149 0.15196665 -0.05701979 0.03356434 0.118498124
0.035175245 0.12509026 0.099035054 0.11206042 0.057248022 -0.027241757 0.014220093 0.12425757
0.1274423 0.13648875 0.12964153 0.016730966 -0.102335356 -0.006664531 -0.007323899 0.095181555
0.080767415 0.06915321 0.11732302 -0.054676864 0.0740102 -0.0022417742 0.019905495 -0.045890477
0.005260959 0.12458128 -0.03094118 -0.08505988 -0.0690982 -0.08058626 0.036825445 0.044428546
0.042730495 0.039194852 0.13502468 -0.050983507 0.10795623 -0.021022355 0.008256325 0.12742265
0.14929216 0.11160038 0.13853168 0.04683095 -0.03927857 0.09807583 -0.042062033 0.12445718
0.07424634 0.06423585 0.03418022 -0.04247733 0.019373486 0.09688904 -0.04742719 0.09775025
0.10853261 -0.097643375 -0.083103195 0.007281857 0.017115181 0.049724504 0.11818811 0.07801583
0.10033953 0.03581037 0.09708033 -0.13127153 0.06345764 -0.042279705 -0.12727116 -0.076511696
-0.00084557506 0.08583792 0.094007276 -0.034768526 0.06580219 -0.032853283 -0.021918466 -0.025081426
-0.037124883 -0.084652275 0.03010621 -0.079977356 0.09131614 0.035276312 -0.059642274 0.035183236
0.10901493 0.0012197332 0.0101333205 -0.018979948 0.09164825 -0.08097287 0.07374543 -0.051244993
0.08750811 -0.12578829 -0.059657212 -0.10919093 -0.0040665935 -0.10448539 -0.07162278 0.03978985
-0.08849436 -0.12787357 0.0010496025 -0.07652947 -0.12392516 0.10018316 -0.036398876 -0.08284578
0.067602985 -0.10933491 -0.01072852 0.012472269 -0.03033647 -0.117793836 -0.116206944 -0.01319432
-0.003948127 0.093998514 -0.07075843 0.027238501 0.065233536 0.007979845 0.005857486 0.026596963

block.7.bias f4 [32]
00000000: 0d1b e03d 3dce c73d 0879 633d bd5c 02be
00000010: 8f2e 8dbd a531 133e dd6a f3bb f407 443d
00000020: a3e1 063d 4473 86bd f108 06bd b33c 803d
00000030: 80e6 6e3c 3d43 803d 31e7 6f3d ebbe a73d
00000040: 5099 783d 130e 36bd 4451 173d 171a ecbd
00000050: 1fbb 5fbd bbc0 a33c 2142 a63d 5574 45bd
00000060: 55e0 a9bc c99d 1abd 80d3 d636 cbdd ef3b
00000070: 697a 1e3c 1d72 823d adea d93c b4c1 a3bd
0.109426595 0.09756134 0.055535346 -0.1273069 -0.06893646 0.14374407 -0.0074285106 0.047859147
0.032930028 -0.06564954 -0.03272337 0.062615775 0.014581323 0.06262825 0.05857009 0.081907116
0.060693085 -0.044447016 0.036942735 -0.11528414 -0.054621812 0.019989362 0.08118082 -0.048206646
-0.020736853 -0.037748132 6.402319e-06 0.007320141 0.00967274 0.06369422 0.02660116 -0.0799593

output_layer.weight f4 [1, 32]
00000000: ffa4 9a3d 790c 103e ddb5 d53d 6764 f4bd
00000010: 93ec 353d 6d43 453e d935 193e 1029 e2bd
00000020: a8b7 65bd ef6b 1dbe d33c 3c3e 453d a8bc
00000030: 373f 0e3d b862 c2bd 6173 6f3d 081c d03d
00000040: 3dc5 813d ff56 c6bd 61d5 ee3d 90d3 d6bd
00000050: 05ad 2f3e 7946 22be 4074 403e 0013 b43d
00000060: 7b4f d73d 61b5 223e 1da2 92bd b113 16be
00000070: 9682 a7bd 451a 41ba 5581 d13d dccc a4bd
0.07551002 0.14067258 0.10435078 -0.11933213 0.044415068 0.19264002 0.14961948 -0.11042988
-0.05608335 -0.15373205 0.18382578 -0.020537028 0.034728255 -0.09491485 0.058459643 0.101615965
0.06336448 -0.09684562 0.116617925 -0.10489571 0.17155845 -0.15847196 0.18794346 0.087926865
0.105132066 0.15889503 -0.07159827 -0.14655949 -0.08179204 -0.000736628 0.10229746 -0.08046886
